X_train shape: (50000, 32, 32, 3)
50000 train samples
10000 test samples
_________________________________________________________________
Layer (type)                 Output Shape              Param #   
=================================================================
conv2d_1 (Conv2D)            (None, 32, 32, 16)        448       
_________________________________________________________________
activation_1 (Activation)    (None, 32, 32, 16)        0         
_________________________________________________________________
conv2d_2 (Conv2D)            (None, 30, 30, 16)        2320      
_________________________________________________________________
activation_2 (Activation)    (None, 30, 30, 16)        0         
_________________________________________________________________
max_pooling2d_1 (MaxPooling2 (None, 15, 15, 16)        0         
_________________________________________________________________
flatten_1 (Flatten)          (None, 3600)              0         
_________________________________________________________________
dense_1 (Dense)              (None, 128)               460928    
_________________________________________________________________
activation_3 (Activation)    (None, 128)               0         
_________________________________________________________________
dense_2 (Dense)              (None, 128)               16512     
_________________________________________________________________
activation_4 (Activation)    (None, 128)               0         
_________________________________________________________________
dense_3 (Dense)              (None, 10)                1290      
_________________________________________________________________
activation_5 (Activation)    (None, 10)                0         
=================================================================
Total params: 481,498
Trainable params: 481,498
Non-trainable params: 0
_________________________________________________________________
None
Train on 50000 samples, validate on 10000 samples
Epoch 1/5

  128/50000 [..............................] - ETA: 3:00 - loss: 2.3186 - acc: 0.1328
  256/50000 [..............................] - ETA: 1:43 - loss: 2.3297 - acc: 0.1055
…
